

Name = Medium Architecture with Regularization
Description = A medium sized architecture with 4 convolutional layers, 3 linear layers, 6 dropout layers and batch normalization 
ConvolutionalNeuralNetwork(
  (_model): Sequential(
    (0): Conv2d(3, 16, kernel_size=(3, 3), stride=(1, 1), padding=(1, 1))
    (1): BatchNorm2d(16, eps=1e-05, momentum=0.1, affine=True, track_running_stats=True)
    (2): ReLU()
    (3): Dropout2d(p=0.2, inplace=False)
    (4): MaxPool2d(kernel_size=2, stride=2, padding=0, dilation=1, ceil_mode=False)
    (5): Conv2d(16, 32, kernel_size=(3, 3), stride=(1, 1), padding=(1, 1))
    (6): BatchNorm2d(32, eps=1e-05, momentum=0.1, affine=True, track_running_stats=True)
    (7): ReLU()
    (8): Dropout2d(p=0.2, inplace=False)
    (9): MaxPool2d(kernel_size=2, stride=2, padding=0, dilation=1, ceil_mode=False)
    (10): Conv2d(32, 64, kernel_size=(3, 3), stride=(1, 1), padding=(1, 1))
    (11): BatchNorm2d(64, eps=1e-05, momentum=0.1, affine=True, track_running_stats=True)
    (12): ReLU()
    (13): Dropout2d(p=0.2, inplace=False)
    (14): MaxPool2d(kernel_size=2, stride=2, padding=0, dilation=1, ceil_mode=False)
    (15): Conv2d(64, 128, kernel_size=(3, 3), stride=(1, 1), padding=(1, 1))
    (16): BatchNorm2d(128, eps=1e-05, momentum=0.1, affine=True, track_running_stats=True)
    (17): ReLU()
    (18): Dropout2d(p=0.2, inplace=False)
    (19): MaxPool2d(kernel_size=2, stride=2, padding=0, dilation=1, ceil_mode=False)
    (20): Flatten(start_dim=1, end_dim=-1)
    (21): Linear(in_features=512, out_features=1024, bias=True)
    (22): BatchNorm1d(1024, eps=1e-05, momentum=0.1, affine=True, track_running_stats=True)
    (23): Dropout(p=0.4, inplace=False)
    (24): Linear(in_features=1024, out_features=128, bias=True)
    (25): BatchNorm1d(128, eps=1e-05, momentum=0.1, affine=True, track_running_stats=True)
    (26): Dropout(p=0.4, inplace=False)
    (27): Linear(in_features=128, out_features=1, bias=True)
    (28): BatchNorm1d(1, eps=1e-05, momentum=0.1, affine=True, track_running_stats=True)
  )
)
Epochs = 70
Learning rate = 0.001
Batch size = 128
Weight decay = 0.0001


Training samples: 17499
Validation samples: 2500
Early stopping: Enabled


Epoch [1/70]
Training Loss: 0.6385
Validation Loss: 0.5656
Training Accuracy: 0.6437
Validation Accuracy: 0.7240
Duration: 140.09 seconds


Epoch [2/70]
Training Loss: 0.5722
Validation Loss: 0.5446
…
